…
[rank 0] add param transformer_blocks.11.0.mlp.fc2.weight as neck_specific
[rank 0] add param transformer_blocks.11.0.mlp.fc2.bias as neck_specific
[rank 0] add param last_proj.weight as neck_specific
[rank 0] add param last_proj.bias as neck_specific
[rank 0] add param feat_bn.weight as decoder_specific
[rank 0] add param feat_bn.bias as decoder_specific
[rank 0] add param loss.SoftmaxLoss.classifier.weight as decoder_specific
[rank 0] add buffer feat_bn.running_mean as decoder_specific
[rank 0] add buffer feat_bn.running_var as decoder_specific
backbone_aio_entry(
  (backbone_module): ViT(
    (patch_embed): PatchEmbed(
      (proj): Conv2d(3, 768, kernel_size=(16, 16), stride=(16, 16))
    )
    (blocks): ModuleList(
      (0): Block(
        (norm1): LayerNorm((768,), eps=1e-06, elementwise_affine=True)
        (attn): Attention(
          (qkv): Linear(in_features=768, out_features=2304, bias=True)
          (proj): Linear(in_features=768, out_features=768, bias=True)
        )
        (drop_path): Identity()
        (norm2): LayerNorm((768,), eps=1e-06, elementwise_affine=True)
        (mlp): Mlp(
          (fc1): Linear(in_features=768, out_features=3072, bias=True)
          (act): GELU()
          (fc2): Linear(in_features=3072, out_features=768, bias=True)
          (drop): Dropout(p=0.0, inplace=False)
        )
      )
      (1): Block(
        (norm1): LayerNorm((768,), eps=1e-06, elementwise_affine=True)
        (attn): Attention(
          (qkv): Linear(in_features=768, out_features=2304, bias=True)
          (proj): Linear(in_features=768, out_features=768, bias=True)
        )
        (drop_path): Identity()
        (norm2): LayerNorm((768,), eps=1e-06, elementwise_affine=True)
        (mlp): Mlp(
          (fc1): Linear(in_features=768, out_features=3072, bias=True)
          (act): GELU()
          (fc2): Linear(in_features=3072, out_features=768, bias=True)
          (drop): Dropout(p=0.0, inplace=False)
        )
      )
      (2): Block(
        (norm1): LayerNorm((768,), eps=1e-06, elementwise_affine=True)
        (attn): Attention(
          (qkv): Linear(in_features=768, out_features=2304, bias=True)
          (proj): Linear(in_features=768, out_features=768, bias=True)
        )
        (drop_path): Identity()
        (norm2): LayerNorm((768,), eps=1e-06, elementwise_affine=True)
        (mlp): Mlp(
          (fc1): Linear(in_features=768, out_features=3072, bias=True)
          (act): GELU()
          (fc2): Linear(in_features=3072, out_features=768, bias=True)
          (drop): Dropout(p=0.0, inplace=False)
        )
      )
      (3): Block(
        (norm1): LayerNorm((768,), eps=1e-06, elementwise_affine=True)
        (attn): Attention(
          (qkv): Linear(in_features=768, out_features=2304, bias=True)
          (proj): Linear(in_features=768, out_features=768, bias=True)
        )
        (drop_path): Identity()
        (norm2): LayerNorm((768,), eps=1e-06, elementwise_affine=True)
        (mlp): Mlp(
          (fc1): Linear(in_features=768, out_features=3072, bias=True)
          (act): GELU()
          (fc2): Linear(in_features=3072, out_features=768, bias=True)
          (drop): Dropout(p=0.0, inplace=False)
        )
      )
      (4): Block(
        (norm1): LayerNorm((768,), eps=1e-06, elementwise_affine=True)
        (attn): Attention(
          (qkv): Linear(in_features=768, out_features=2304, bias=True)
          (proj): Linear(in_features=768, out_features=768, bias=True)
        )
        (drop_path): Identity()
        (norm2): LayerNorm((768,), eps=1e-06, elementwise_affine=True)
        (mlp): Mlp(
          (fc1): Linear(in_features=768, out_features=3072, bias=True)
          (act): GELU()
          (fc2): Linear(in_features=3072, out_features=768, bias=True)
          (drop): Dropout(p=0.0, inplace=False)
        )
      )
      (5): Block(
        (norm1): LayerNorm((768,), eps=1e-06, elementwise_affine=True)
        (attn): Attention(
          (qkv): Linear(in_features=768, out_features=2304, bias=True)
          (proj): Linear(in_features=768, out_features=768, bias=True)
        )
        (drop_path): Identity()
        (norm2): LayerNorm((768,), eps=1e-06, elementwise_affine=True)
        (mlp): Mlp(
          (fc1): Linear(in_features=768, out_features=3072, bias=True)
          (act): GELU()
          (fc2): Linear(in_features=3072, out_features=768, bias=True)
          (drop): Dropout(p=0.0, inplace=False)
        )
      )
      (6): Block(
        (norm1): LayerNorm((768,), eps=1e-06, elementwise_affine=True)
        (attn): Attention(
          (qkv): Linear(in_features=768, out_features=2304, bias=True)
          (proj): Linear(in_features=768, out_features=768, bias=True)
        )
        (drop_path): Identity()
        (norm2): LayerNorm((768,), eps=1e-06, elementwise_affine=True)
        (mlp): Mlp(
          (fc1): Linear(in_features=768, out_features=3072, bias=True)
          (act): GELU()
          (fc2): Linear(in_features=3072, out_features=768, bias=True)
          (drop): Dropout(p=0.0, inplace=False)
        )
      )
      (7): Block(
        (norm1): LayerNorm((768,), eps=1e-06, elementwise_affine=True)
        (attn): Attention(
          (qkv): Linear(in_features=768, out_features=2304, bias=True)
          (proj): Linear(in_features=768, out_features=768, bias=True)
        )
        (drop_path): Identity()
        (norm2): LayerNorm((768,), eps=1e-06, elementwise_affine=True)
        (mlp): Mlp(
          (fc1): Linear(in_features=768, out_features=3072, bias=True)
          (act): GELU()
          (fc2): Linear(in_features=3072, out_features=768, bias=True)
          (drop): Dropout(p=0.0, inplace=False)
        )
      )
      (8): Block(
        (norm1): LayerNorm((768,), eps=1e-06, elementwise_affine=True)
        (attn): Attention(
          (qkv): Linear(in_features=768, out_features=2304, bias=True)
          (proj): Linear(in_features=768, out_features=768, bias=True)
        )
        (drop_path): Identity()
        (norm2): LayerNorm((768,), eps=1e-06, elementwise_affine=True)
        (mlp): Mlp(
          (fc1): Linear(in_features=768, out_features=3072, bias=True)
          (act): GELU()
          (fc2): Linear(in_features=3072, out_features=768, bias=True)
          (drop): Dropout(p=0.0, inplace=False)
        )
      )
      (9): Block(
        (norm1): LayerNorm((768,), eps=1e-06, elementwise_affine=True)
        (attn): Attention(
          (qkv): Linear(in_features=768, out_features=2304, bias=True)
          (proj): Linear(in_features=768, out_features=768, bias=True)
        )
        (drop_path): Identity()
        (norm2): LayerNorm((768,), eps=1e-06, elementwise_affine=True)
        (mlp): Mlp(
          (fc1): Linear(in_features=768, out_features=3072, bias=True)
          (act): GELU()
          (fc2): Linear(in_features=3072, out_features=768, bias=True)
          (drop): Dropout(p=0.0, inplace=False)
        )
      )
      (10): Block(
        (norm1): LayerNorm((768,), eps=1e-06, elementwise_affine=True)
        (attn): Attention(
          (qkv): Linear(in_features=768, out_features=2304, bias=True)
          (proj): Linear(in_features=768, out_features=768, bias=True)
        )
        (drop_path): Identity()
        (norm2): LayerNorm((768,), eps=1e-06, elementwise_affine=True)
        (mlp): Mlp(
          (fc1): Linear(in_features=768, out_features=3072, bias=True)
          (act): GELU()
          (fc2): Linear(in_features=3072, out_features=768, bias=True)
          (drop): Dropout(p=0.0, inplace=False)
        )
      )
      (11): Block(
        (norm1): LayerNorm((768,), eps=1e-06, elementwise_affine=True)
        (attn): Attention(
          (qkv): Linear(in_features=768, out_features=2304, bias=True)
          (proj): Linear(in_features=768, out_features=768, bias=True)
        )
        (drop_path): Identity()
        (norm2): LayerNorm((768,), eps=1e-06, elementwise_affine=True)
        (mlp): Mlp(
          (fc1): Linear(in_features=768, out_features=3072, bias=True)
          (act): GELU()
          (fc2): Linear(in_features=3072, out_features=768, bias=True)
          (drop): Dropout(p=0.0, inplace=False)
        )
      )
    )
    (ln_pre): Identity()
    (norm): LayerNorm((768,), eps=1e-06, elementwise_affine=True)
  )
  (neck_module): LadderSideAttentionFPN(
    (reduction_layers): ModuleList(
      (0): Linear(in_features=768, out_features=96, bias=True)
      (1): Linear(in_features=768, out_features=96, bias=True)
      (2): Linear(in_features=768, out_features=96, bias=True)
      (3): Linear(in_features=768, out_features=96, bias=True)
      (4): Linear(in_features=768, out_features=96, bias=True)
      (5): Linear(in_features=768, out_features=96, bias=True)
      (6): Linear(in_features=768, out_features=96, bias=True)
      (7): Linear(in_features=768, out_features=96, bias=True)
      (8): Linear(in_features=768, out_features=96, bias=True)
      (9): Linear(in_features=768, out_features=96, bias=True)
      (10): Linear(in_features=768, out_features=96, bias=True)
      (11): Linear(in_features=768, out_features=96, bias=True)
      (12): Linear(in_features=768, out_features=96, bias=True)
    )
    (side_gate_params): ParameterList(
        (0): Parameter containing: [torch.cuda.FloatTensor of size 1 (GPU 0)]
        (1): Parameter containing: [torch.cuda.FloatTensor of size 1 (GPU 0)]
        (2): Parameter containing: [torch.cuda.FloatTensor of size 1 (GPU 0)]
        (3): Parameter containing: [torch.cuda.FloatTensor of size 1 (GPU 0)]
…
        (5): Parameter containing: [torch.cuda.FloatTensor of size 1 (GPU 0)]
        (6): Parameter containing: [torch.cuda.FloatTensor of size 1 (GPU 0)]
        (7): Parameter containing: [torch.cuda.FloatTensor of size 1 (GPU 0)]
        (8): Parameter containing: [torch.cuda.FloatTensor of size 1 (GPU 0)]
        (9): Parameter containing: [torch.cuda.FloatTensor of size 1 (GPU 0)]
        (10): Parameter containing: [torch.cuda.FloatTensor of size 1 (GPU 0)]
        (11): Parameter containing: [torch.cuda.FloatTensor of size 1 (GPU 0)]
    )
    (transformer_blocks): ModuleList(
      (0): ModuleList(
        (0): TransformerBlock(
          (norm1): LayerNorm((96,), eps=1e-05, elementwise_affine=True)
          (attn): Attention(
            (qkv): Linear(in_features=96, out_features=288, bias=False)
            (attn_drop): Dropout(p=0.0, inplace=False)
            (proj): Linear(in_features=96, out_features=96, bias=True)
            (proj_drop): Dropout(p=0.0, inplace=False)
          )
          (drop_path): Identity()
          (norm2): LayerNorm((96,), eps=1e-05, elementwise_affine=True)
          (mlp): Mlp(
            (fc1): Linear(in_features=96, out_features=384, bias=True)
            (act): GELU()
            (fc2): Linear(in_features=384, out_features=96, bias=True)
            (drop): Dropout(p=0.0, inplace=False)
          )
        )
      )
      (1): ModuleList(
        (0): TransformerBlock(
          (norm1): LayerNorm((96,), eps=1e-05, elementwise_affine=True)
          (attn): Attention(
            (qkv): Linear(in_features=96, out_features=288, bias=False)
            (attn_drop): Dropout(p=0.0, inplace=False)
            (proj): Linear(in_features=96, out_features=96, bias=True)
            (proj_drop): Dropout(p=0.0, inplace=False)
          )
          (drop_path): Identity()
          (norm2): LayerNorm((96,), eps=1e-05, elementwise_affine=True)
          (mlp): Mlp(
            (fc1): Linear(in_features=96, out_features=384, bias=True)
            (act): GELU()
            (fc2): Linear(in_features=384, out_features=96, bias=True)
            (drop): Dropout(p=0.0, inplace=False)
          )
        )
      )
      (2): ModuleList(
        (0): TransformerBlock(
          (norm1): LayerNorm((96,), eps=1e-05, elementwise_affine=True)
          (attn): Attention(
            (qkv): Linear(in_features=96, out_features=288, bias=False)
            (attn_drop): Dropout(p=0.0, inplace=False)
            (proj): Linear(in_features=96, out_features=96, bias=True)
            (proj_drop): Dropout(p=0.0, inplace=False)
          )
          (drop_path): Identity()
          (norm2): LayerNorm((96,), eps=1e-05, elementwise_affine=True)
          (mlp): Mlp(
            (fc1): Linear(in_features=96, out_features=384, bias=True)
            (act): GELU()
            (fc2): Linear(in_features=384, out_features=96, bias=True)
            (drop): Dropout(p=0.0, inplace=False)
          )
        )
      )
      (3): ModuleList(
        (0): TransformerBlock(
          (norm1): LayerNorm((96,), eps=1e-05, elementwise_affine=True)
          (attn): Attention(
            (qkv): Linear(in_features=96, out_features=288, bias=False)
            (attn_drop): Dropout(p=0.0, inplace=False)
            (proj): Linear(in_features=96, out_features=96, bias=True)
            (proj_drop): Dropout(p=0.0, inplace=False)
          )
          (drop_path): Identity()
          (norm2): LayerNorm((96,), eps=1e-05, elementwise_affine=True)
          (mlp): Mlp(
            (fc1): Linear(in_features=96, out_features=384, bias=True)
            (act): GELU()
            (fc2): Linear(in_features=384, out_features=96, bias=True)
            (drop): Dropout(p=0.0, inplace=False)
          )
        )
      )
      (4): ModuleList(
        (0): TransformerBlock(
          (norm1): LayerNorm((96,), eps=1e-05, elementwise_affine=True)
          (attn): Attention(
            (qkv): Linear(in_features=96, out_features=288, bias=False)
            (attn_drop): Dropout(p=0.0, inplace=False)
            (proj): Linear(in_features=96, out_features=96, bias=True)
            (proj_drop): Dropout(p=0.0, inplace=False)
          )
          (drop_path): Identity()
          (norm2): LayerNorm((96,), eps=1e-05, elementwise_affine=True)
          (mlp): Mlp(
            (fc1): Linear(in_features=96, out_features=384, bias=True)
            (act): GELU()
            (fc2): Linear(in_features=384, out_features=96, bias=True)
            (drop): Dropout(p=0.0, inplace=False)
          )
        )
      )
      (5): ModuleList(
        (0): TransformerBlock(
          (norm1): LayerNorm((96,), eps=1e-05, elementwise_affine=True)
          (attn): Attention(
            (qkv): Linear(in_features=96, out_features=288, bias=False)
            (attn_drop): Dropout(p=0.0, inplace=False)
            (proj): Linear(in_features=96, out_features=96, bias=True)
            (proj_drop): Dropout(p=0.0, inplace=False)
          )
          (drop_path): Identity()
          (norm2): LayerNorm((96,), eps=1e-05, elementwise_affine=True)
          (mlp): Mlp(
            (fc1): Linear(in_features=96, out_features=384, bias=True)
            (act): GELU()
            (fc2): Linear(in_features=384, out_features=96, bias=True)
            (drop): Dropout(p=0.0, inplace=False)
          )
        )
      )
      (6): ModuleList(
        (0): TransformerBlock(
          (norm1): LayerNorm((96,), eps=1e-05, elementwise_affine=True)
          (attn): Attention(
            (qkv): Linear(in_features=96, out_features=288, bias=False)
            (attn_drop): Dropout(p=0.0, inplace=False)
            (proj): Linear(in_features=96, out_features=96, bias=True)
            (proj_drop): Dropout(p=0.0, inplace=False)
          )
          (drop_path): Identity()
          (norm2): LayerNorm((96,), eps=1e-05, elementwise_affine=True)
          (mlp): Mlp(
            (fc1): Linear(in_features=96, out_features=384, bias=True)
            (act): GELU()
            (fc2): Linear(in_features=384, out_features=96, bias=True)
            (drop): Dropout(p=0.0, inplace=False)
          )
        )
      )
      (7): ModuleList(
        (0): TransformerBlock(
          (norm1): LayerNorm((96,), eps=1e-05, elementwise_affine=True)
          (attn): Attention(
            (qkv): Linear(in_features=96, out_features=288, bias=False)
            (attn_drop): Dropout(p=0.0, inplace=False)
            (proj): Linear(in_features=96, out_features=96, bias=True)
            (proj_drop): Dropout(p=0.0, inplace=False)
          )
          (drop_path): Identity()
          (norm2): LayerNorm((96,), eps=1e-05, elementwise_affine=True)
          (mlp): Mlp(
            (fc1): Linear(in_features=96, out_features=384, bias=True)
            (act): GELU()
            (fc2): Linear(in_features=384, out_features=96, bias=True)
            (drop): Dropout(p=0.0, inplace=False)
          )
        )
      )
      (8): ModuleList(
        (0): TransformerBlock(
          (norm1): LayerNorm((96,), eps=1e-05, elementwise_affine=True)
          (attn): Attention(
            (qkv): Linear(in_features=96, out_features=288, bias=False)
            (attn_drop): Dropout(p=0.0, inplace=False)
            (proj): Linear(in_features=96, out_features=96, bias=True)
            (proj_drop): Dropout(p=0.0, inplace=False)
          )
          (drop_path): Identity()
          (norm2): LayerNorm((96,), eps=1e-05, elementwise_affine=True)
          (mlp): Mlp(
            (fc1): Linear(in_features=96, out_features=384, bias=True)
            (act): GELU()
            (fc2): Linear(in_features=384, out_features=96, bias=True)
            (drop): Dropout(p=0.0, inplace=False)
          )
        )
      )
      (9): ModuleList(
        (0): TransformerBlock(
          (norm1): LayerNorm((96,), eps=1e-05, elementwise_affine=True)
          (attn): Attention(
            (qkv): Linear(in_features=96, out_features=288, bias=False)
            (attn_drop): Dropout(p=0.0, inplace=False)
            (proj): Linear(in_features=96, out_features=96, bias=True)
            (proj_drop): Dropout(p=0.0, inplace=False)
          )
          (drop_path): Identity()
          (norm2): LayerNorm((96,), eps=1e-05, elementwise_affine=True)
          (mlp): Mlp(
            (fc1): Linear(in_features=96, out_features=384, bias=True)
            (act): GELU()
            (fc2): Linear(in_features=384, out_features=96, bias=True)
            (drop): Dropout(p=0.0, inplace=False)
          )
        )
      )
      (10): ModuleList(
        (0): TransformerBlock(
          (norm1): LayerNorm((96,), eps=1e-05, elementwise_affine=True)
          (attn): Attention(
            (qkv): Linear(in_features=96, out_features=288, bias=False)
            (attn_drop): Dropout(p=0.0, inplace=False)
            (proj): Linear(in_features=96, out_features=96, bias=True)
            (proj_drop): Dropout(p=0.0, inplace=False)
          )
          (drop_path): Identity()
          (norm2): LayerNorm((96,), eps=1e-05, elementwise_affine=True)
          (mlp): Mlp(
            (fc1): Linear(in_features=96, out_features=384, bias=True)
            (act): GELU()
            (fc2): Linear(in_features=384, out_features=96, bias=True)
            (drop): Dropout(p=0.0, inplace=False)
          )
        )
      )
      (11): ModuleList(
        (0): TransformerBlock(
          (norm1): LayerNorm((96,), eps=1e-05, elementwise_affine=True)
          (attn): Attention(
            (qkv): Linear(in_features=96, out_features=288, bias=False)
            (attn_drop): Dropout(p=0.0, inplace=False)
            (proj): Linear(in_features=96, out_features=96, bias=True)
            (proj_drop): Dropout(p=0.0, inplace=False)
          )
          (drop_path): Identity()
          (norm2): LayerNorm((96,), eps=1e-05, elementwise_affine=True)
          (mlp): Mlp(
            (fc1): Linear(in_features=96, out_features=384, bias=True)
            (act): GELU()
            (fc2): Linear(in_features=384, out_features=96, bias=True)
            (drop): Dropout(p=0.0, inplace=False)
          )
        )
      )
    )
    (attention_layers): ModuleList(
      (0): Identity()
      (1): Identity()
      (2): Identity()
      (3): Identity()
      (4): Identity()
      (5): Identity()
      (6): Identity()
      (7): Identity()
      (8): Identity()
      (9): Identity()
      (10): Identity()
      (11): Identity()
      (12): Identity()
    )
    (last_proj): Linear(in_features=96, out_features=768, bias=True)
  )
  (decoder_module): reid_cls_vit_B(
    (feat_bn): SyncBatchNorm2d(768, eps=1e-05, momentum=0.1, affine=True, var_mode=syncbnVarMode_t.L2)
    (loss): Softmax(in_features=768, out_features=3261)TripletLoss(, margin=None)Softmax_TripletLoss(, balance_weight=1)
  )
)
[rank 0] broadcasting task-specific param module.backbone_module.cls_token	group_idx=1
…
